model.pth (torch, 89851 bytes, 8 tensors)

conv1.weight f4 [10, 1, 5, 5]
00000000: fccb ad3d 6827 fc3d d46c 833d 600b 603e
00000010: 2e51 973e b4bd 1f3e 9798 053f cb54 c73e
00000020: 1f07 d13e 87af 9d3e 5b15 8c3e 2b74 e33d
00000030: f6e4 403e 7d8e 343d 2849 dc3c 2c83 05be
00000040: a4c2 a5be 987f 93be 2081 9ebe 588c fc3c
00000050: 7b42 eebe 60d9 dcbe 364f d0be 549b d3be
00000060: f9e1 3bbe f972 84be 8800 b43d 6f1c 7ebe
00000070: cb45 2a3e c149 323e 54fb b7bd 6a5e ad3d
00000080: 9d7f 8e3c 0c6c a23e 3745 8d3e 8211 8ebd
00000090: 777e 843b c763 d7bd 28ba 7b3e 011c c03e
000000a0: a244 433d 9120 4bbe ac15 adbc da73 d23d
000000b0: e4ce 923e f5c5 adbe dd22 c0be 1351 67be
000000c0: 7d9b 25be b2de a53e 8b88 733e 1408 873e
000000d0: 2f29 6b3e e042 2b3e 7fa4 aa3e 8b80 96bd
000000e0: e816 823d 6ceb eebd acaa 6a3d f796 49bc
000000f0: 3e56 053d 37db 8ebd ef3a aa3d 919e 5cbe
00000100: 3194 1cbe ed91 1abe 699e f03d 0fbe 03bb
00000110: d318 1d3e efd8 14be b6d2 59be 255e 56be
00000120: 877a 25be e10c d03d b151 f13d c702 1a3e
00000130: 98bd 1abe a0ad 6abe 58bc f03c 296e d0bd
00000140: 7849 373e 98bf acbb 5644 c13d cbba 25be
00000150: 866f 92bd 3c02 f23d 2647 003e 6483 943c
00000160: 33da 4b3e 60ae 5c3e e8f6 0fbe 3f02 9cbd
00000170: e71f 753e d068 a23a e571 f9bc 8750 5bbe
00000180: e955 06be b3a7 303d 0e72 16bd d6ff 1dbe
00000190: 2013 2abd f2dd 2ebe 490e 55be e5d1 23be
000001a0: 6f66 86be 644b 56be a043 d63d 02b1 81bd
000001b0: 05c6 19bd a732 94be b619 5dbe a130 29be
000001c0: 0d1d 97bd a2be 8abe 3f94 1fbe 1478 4fbe
000001d0: 66b5 b9bd 51c3 1abe 8099 6abd 73b1 e0bd
000001e0: e88a 62be 50e9 55be 96fa f3bd 002d 0cbe
000001f0: a85b 9e3e 56fb 05be 6317 bd3b 9020 8fbd
00000200: 088a 5abe 54fd 5a3e 3b95 59be d77a 7cbe
00000210: 7518 7fbe fdc4 e8bd 1595 943e f41b 61be
00000220: b3e9 a6bd 91fb 3dbe 280e b43e 88ff 203e
00000230: 445d 1cbe f52d b6bc 5613 453e 9ff9 c33e
00000240: 6d4a af3e e676 41be 275b 043e 4a2e e53d
00000250: 68b3 403e ff60 dabd 18af 753e 7f7d 0f3b
00000260: d8e2 903e e0f4 683e 5fb1 313e bf74 21be
00000270: ffa7 303e 3be9 2f3e 2f2d 5f3e 19c7 aabd
00000280: 9acb c0bd 0ebf 05be 25bb 02bd 88e8 ab3e
00000290: e867 043e 0154 80be ed5f 08be 6d3c e33c
000002a0: 41aa 823e 6379 a33d 62b2 58be 24a8 c1bd
000002b0: b153 15be 9dd7 173e cc33 753e de68 2fbe
000002c0: 5ff9 243e e891 653e f4a0 b83d 0bcb 803c
000002d0: 192f 9c3d 9797 203e da85 543e 5e67 e73d
000002e0: 401d 013e fae3 25bc 5418 f7bc 51d7 bd3d
000002f0: 3eb5 d63e 1cc8 b73e 6abc abbc e939 39ba
00000300: 229b 413e 4558 603e 77ef ae3d b036 013e
00000310: 64ab 17bd 6a04 133e 773d 973e af5e 9b3c
00000320: 31ee e13d 61cf 77bd fe2a 3dbe c9ff 9ebe
00000330: 7bfd 31be 29ff 833e 5161 913e 43a6 f1ba
00000340: 255f cebe e3bc adbe 8963 803d 3689 eb3e
00000350: c2d8 1a3e 313f 58be 4fea 11be 171d a0bd
00000360: 870a 003e 6066 c13e 642d b4bd 48fc f0bd
00000370: e54d 5bbe d8d6 503e a742 993e 0156 5a3e
00000380: 5637 fcbd 8c3f 1ebe cbae 62bd dd81 ab3e
00000390: d089 a13e 79d5 f23e 3c63 e63c ebbe 993c
000003a0: b84f 303d a403 5ebd e947 b43a 95aa dbbe
000003b0: 92d1 edbd 27b8 42be 1395 0bbe b177 3ebe
000003c0: 252b 7dbe 5065 9fbe 1e3b 7abe ff1f f3bd
000003d0: b9e3 46be f1b9 e53d 0c4c 67bd 06cf 1ebe
000003e0: 3fae bbbd d66b cbbd
0.084861726 0.12312204 0.06417242 0.21879339 0.29554123 0.1559971 0.5218596 0.3893188
0.40825745 0.3079798 0.27360043 0.11106142 0.18837342 0.0440812 0.026890352 -0.1303832
-0.32375062 -0.28808284 -0.3095789 0.03082864 -0.46535096 -0.43134594 -0.40685433 -0.41329443
-0.1834792 -0.25868967 0.08789164 -0.24815534 0.16628186 0.17410947 -0.08983484 0.08465274
0.017394835 0.31723058 0.2759187 -0.06936933 0.004043396 -0.10517078 0.24582732 0.37521365
0.047672875 -0.19836642 -0.021128498 0.10276003 0.2867347 -0.33940092 -0.375266 -0.22589521
-0.16172595 0.32396466 0.23782556 0.2637335 0.22964929 0.1672473 0.33328626 -0.073487364
0.06352025 -0.11665997 0.05729167 -0.012304059 0.03255295 -0.06975406 0.08312022 -0.21544863
-0.15290906 -0.15094729 0.11748964 -0.0020102297 0.15341501 -0.14535879 -0.21271786 -0.20934351
-0.16160022 0.101587065 0.117831595 0.15040122 -0.15111387 -0.22917795 0.029386684 -0.101772614
0.1789912 -0.005271863 0.09436862 -0.16184537 -0.07150178 0.118168324 0.12527141 0.018129058
0.19907455 0.21550894 -0.14059031 -0.07617616 0.23937951 0.0012390856 -0.030449817 -0.21417437
-0.1311871 0.04312868 -0.036729865 -0.15429625 -0.041522145 -0.17076853 -0.2080623 -0.15998037
-0.26250026 -0.20927197 0.10462117 -0.0633259 -0.03754236 -0.28944895 -0.21591839 -0.16522457
-0.07378588 -0.27098566 -0.15583895 -0.2026065 -0.09067802 -0.1511357 -0.057275295 -0.10971346
-0.22123301 -0.20889783 -0.1191303 -0.13689041 0.30929303 -0.13084158 0.00577061 -0.06988633
-0.21341717 0.213857 -0.21248333 -0.24656235 -0.24911673 -0.113656975 0.2901999 -0.2198332
-0.08150043 -0.18552996 0.3516705 0.15722477 -0.15269953 -0.02223871 0.19245657 0.38276383
0.3423647 -0.18893012 0.12925397 0.111904696 0.18818438 -0.10663032 0.23992574 0.002189487
0.28298068 0.22749662 0.17352818 -0.15767191 0.17251585 0.17178814 0.2179458 -0.08338756
-0.09413834 -0.13061163 -0.031916756 0.33575845 0.12930262 -0.2506409 -0.13317843 0.027738774
0.25520518 0.07982137 -0.21161798 -0.094558984 -0.14582707 0.14828344 0.2394554 -0.17129847
0.16110753 0.2241894 0.09015074 0.015721818 0.07626171 0.15682827 0.20754185 0.112990126
0.12608814 -0.010125155 -0.030162968 0.09269584 0.41935152 0.3589486 -0.020963866 -0.0007065819
0.18906835 0.21908672 0.08541768 0.12618518 -0.037028685 0.14357153 0.2953908 0.018966047
0.110317595 -0.060500506 -0.18473431 -0.31054524 -0.17381851 0.2578061 0.2839456 -0.0018436391
-0.40306965 -0.33933172 0.06268985 0.4600312 0.15121749 -0.21117856 -0.14249538 -0.078180484
0.12504016 0.37773418 -0.0879772 -0.11766869 -0.21416433 0.20394456 0.29933664 0.2132187
-0.12315242 -0.15453929 -0.055342477 0.33497515 0.31550455 0.47428492 0.02812349 0.018767795
0.043044776 -0.05420269 0.0013754341 -0.4290358 -0.11612238 -0.19015561 -0.13631086 -0.18600346
-0.2472349 -0.31131983 -0.24436614 -0.11871337 -0.19422807 0.11217106 -0.05646901 -0.1550866
-0.09164094 -0.099326774

conv1.bias f4 [10]
00000000: 966d 003e b6d9 12be fca9 033e 5024 f6bd
00000010: f3c8 983e d8e9 c03d a5ef 1b3e c622 23bd
00000020: 5757 ab3d 7d9b 63bd
0.12541804 -0.14340863 0.12857813 -0.12018645 0.29840812 0.09419602 0.15228136 -0.039828084
0.08366268 -0.055568207

conv2.weight f4 [20, 10, 5, 5]
00000000: 5ec1 ec3c f4f4 8b3d 0b21 34ba cccc 223a
00000010: 668c 89bc 0eff 72bd 761d e43c 7ebb b3bd
00000020: 0feb ceba 52cd 85bb 1b42 f53c 99f7 3ebd
00000030: 0d45 acbd d26a 0e3b 8935 3c3d 93dd 7ebd
00000040: aa86 3bbd 37ce 88bd ca4d 173a a3ba f6ba
00000050: af62 06bc b557 47bd 4374 babd 3f01 be3c
00000060: d853 e53c 6fa8 253d 6b2a 36bc 7668 40bd
00000070: 6af5 2dbd 200e d4bc fc04 bb3c 8adf 44bd
00000080: ccff 50bd ada8 743c 8a68 3d3c 9631 43bd
00000090: c85d 9cbc e2c3 74bc 6a6e 003c 4b9f 9e3c
000000a0: 3621 9ebd 0cc1 003d 1a37 10bd 1904 9c3c
000000b0: 8457 f9ba 548b 02bd a16d fb3c c40b 643b
000000c0: 7c0f a7bd 8bef d3bb 799d 873d 502b eb3c
000000d0: 78f2 643d b6a5 853d 9258 0b3b 950f 3b3c
000000e0: cc49 48bd 34c4 b1bc 98be 013d 945a b93c
000000f0: 447e 28bd f201 88bd d0d2 65bd 5460 96bd
00000100: c4fc 64bd 83aa 1dbc 0045 bb3c 7143 22bc
00000110: 61e3 48bd f719 38bd b71f 333d 1a17 57bd
00000120: 2fbc 96bc ed65 be3c a19c 12bd aa47 b9bc
00000130: ef43 42bc d2a1 a2bb f5c1 20bd 21e9 8abd
00000140: 44bd 85bd 378a 06bd 5a6b 883d ded2 07bd
00000150: 94fb 4fbd 44e1 b73a cc9f 2e3c 18fa eb3c
00000160: 944c 3c3d 29f9 fd3c a551 4bbd 4dc8 353c
00000170: b1c5 f63c ba7e 20bc 5f53 20bd a6b8 7a3d
00000180: f993 c1bc f2b2 3fbd df72 7fbd 3d3f 9d3a
00000190: 5a12 523c eb9d 433b f336 a63c 15df 14bd
000001a0: ed83 52bd 7808 27bc 9d48 813d 818d 603d
000001b0: a7e4 c5bc a8e8 95bb ae22 74bd ac89 69bc
000001c0: 3f83 063d a320 0d3d 1c0f 333d da99 57bd
000001d0: 5f08 853d 6419 cfbc 7a4a 0d3d e6c4 5a3d
000001e0: 946c a53c 8cad c23d c8ee acbc b4ef 23bb
000001f0: 07c9 3d3d ddd1 f03c 732e 9fbc 146c 4bbd
00000200: 4423 363d af97 1e3d ef34 e93c 5ee3 32bd
00000210: 7ef7 89bd e141 e43c 4c3c 2c3d 9b5d 0cbd
00000220: 377b f2bc 78ca 253d ba5e 833c b0bd 0cbb
00000230: db6f ddbc 98c7 74bd fcd6 81bd 4245 44bd
00000240: 5b26 1ebd 1b52 0ebb 2ac0 c7bc d28e d0bc
00000250: ab20 763d 5893 e63c 7371 c73d 25a2 d1bc
00000260: 0a9e eabc ac51 283d 1b2d 1f3c 9b9e 0ebd
00000270: de32 b6bc 51c8 04bd 8b21 23bd 3cf0 913d
00000280: 0655 123d 0900 d7bc 5fcd 98bc e8cb 58bd
00000290: 10e1 5e3c 6576 c2bb 3aeb 40bc 02b3 f3bc
000002a0: 7d2a f1bc dce2 4b3d 0165 8ebd ef92 6d3c
000002b0: 34f8 1cbd defc 58bc 2a0e 1ebd 1bd0 dc3d
000002c0: 6b36 a33c 050c 0e3d 4269 0fbb 2fe0 b73d
000002d0: a202 f83d 472c f1bc bf41 84bd 49fb 5b3d
000002e0: c369 ab3d d6d6 d2bc 4fd0 35bd fd99 9fbd
000002f0: 32b7 52bd ccea 2e3d ad94 463c c895 febc
00000300: 91a8 20bd 8c1a 0c3d f726 d23b f33b b2bd
00000310: 6762 4abd 512b c8b7 b719 963c 39a9 6abd
00000320: 19ab f33c 9497 5dbc 37c4 0ebd 16e2 4abd
00000330: 3d9e 353d 19f6 973d 9455 5a3d 9f58 133d
00000340: a2ab 223d 9e87 fb3b 42d7 363c 1d4d 783c
00000350: 6a29 6cbd 27c6 4fbd b13a abbb 4695 3d3d
00000360: 1323 963c 3bcd 60bd 173a 28bd c100 333c
00000370: 8113 40bd 383c 94bd 3b4e 0c3b 78a4 37bc
00000380: 226f 7e3d 9a5f 783d 418e 663c 069e b13c
00000390: 6667 d03c 095f 0d3b 0fc4 ddbc ee2a 9cbc
000003a0: 4a2a bc3b 439a 233d 96f1 17bd 606c 37bd
000003b0: e180 c0bc 3fce 21bd 0fe0 8a3b 3ea2 253d
000003c0: 00fa dc3c f799 813c 1e0f 40bd 1594 90bc
000003d0: 5d1a 403c 6424 09bc 45e3 043c 3973 57bd
000003e0: 9b95 d93c ab1f 10bd ec5c f2bd 76c1 14be
000003f0: f753 08bd 1410 96bc 34aa 043e 22df 9cbd
0.028900798 0.068338305 -0.0006871379 0.00062103267 -0.01679058 -0.05932527 0.02784608 -0.08775996
-0.0015786606 -0.004083314 0.029938748 -0.046622846 -0.08411608 0.002173115 0.045949493 -0.06222303
-0.045782723 -0.06679957 0.00057717843 -0.0018823933 -0.008202239 -0.04866763 -0.091042064 0.023193954
0.027994081 0.040443834 -0.011118512 -0.04697462 -0.042470373 -0.025885642 0.022829525 -0.048064746
-0.051025197 0.014932794 0.011560569 -0.04765471 -0.019087687 -0.01493928 0.007838825 0.019363066
-0.07721178 0.031434104 -0.0352088 0.019044923 -0.0019023274 -0.031871155 0.030691924 0.0034797052
-0.0815725 -0.0064677647 0.066218324 0.028707176 0.0558953 0.065257475 0.0021262509 0.011417289
-0.048898503 -0.021700002 0.031675905 0.022626199 -0.04113604 -0.06640996 -0.05610925 -0.07342592
-0.05590512 -0.009623173 0.02286005 -0.009903775 -0.04904497 -0.044946637 0.043731418 -0.052512266
-0.01840028 0.023241961 -0.035793904 -0.02261718 -0.011857017 -0.004963138 -0.03924747 -0.06782747
-0.0653024 -0.032846656 0.06661101 -0.033160083 -0.050777033 0.0014028926 0.010658216 0.028805777
0.045971468 0.031002598 -0.04963841 0.011095119 0.030123563 -0.009795839 -0.03914201 0.06121125
-0.02363013 -0.046801515 -0.06236541 0.0011996996 0.012821758 0.0029848765 0.020289874 -0.03634556
-0.051395345 -0.01019489 0.06312678 0.05482245 -0.024156881 -0.004574854 -0.059603386 -0.014254015
0.03284001 0.034454953 0.04371558 -0.05263696 0.06495737 -0.025280662 0.034494855 0.053410433
0.020193376 0.09505758 -0.021109954 -0.00250147 0.046334293 0.029396946 -0.019431328 -0.04966362
0.044467226 0.038718875 0.028467624 -0.043673865 -0.067366585 0.027863445 0.04204969 -0.034268957
-0.029599769 0.040476292 0.01603638 -0.0021475367 -0.027030876 -0.05976066 -0.06339833 -0.047917612
-0.038610797 -0.002171642 -0.024383623 -0.025458727 0.06008975 0.02814643 0.097384356 -0.025590012
-0.028639812 0.041093513 0.009715344 -0.034819227 -0.022241052 -0.0324176 -0.03982691 0.07125899
0.035725616 -0.026245134 -0.018652616 -0.052928835 0.013603464 -0.005934524 -0.011774832 -0.029748444
-0.029439205 0.049776897 -0.06952859 0.014500364 -0.038322642 -0.013243882 -0.038587727 0.107818805
0.01992341 0.03467943 -0.0021882807 0.089783065 0.12109877 -0.029440058 -0.064578526 0.05370644
0.08369782 -0.025737207 -0.04438811 -0.07793043 -0.05144424 0.04270439 0.012120408 -0.03107728
-0.039223257 0.034205005 0.0064133364 -0.08702841 -0.04941025 -2.3862029e-05 0.018322809 -0.05729029
0.029744672 -0.013524909 -0.034855094 -0.04953202 0.04434036 0.07419986 0.05330427 0.035973188
0.039714463 0.007676079 0.01115972 0.015155104 -0.057656683 -0.050726082 -0.0052255024 0.046284936
0.018327272 -0.054883223 -0.041071024 0.010925473 -0.0468936 -0.07238048 0.0021408934 -0.011208646
0.062117703 0.060638048 0.014072002 0.021681797 0.02543993 0.0021571538 -0.027071027 -0.01906344
0.005742346 0.039942037 -0.03709563 -0.04478109 -0.023498954 -0.039503332 0.0042381356 0.04043793
0.026974678 0.015820486 -0.046889417 -0.017648736 0.0117250355 -0.008370493 0.008110826 -0.05260012
0.026560595 -0.03518645 -0.1183413 -0.14526924 -0.0332832 -0.018318214 0.12955552 -0.07659747

conv2.bias f4 [20]
00000000: 239b 39bd 400c 183c cc15 6c3d efbf 6abd
00000010: e2d6 44bc c371 6abd 6bf2 173d c7d3 0c3d
00000020: cd5a 9ebc cd5c 87bd e770 5b3d 7dcf 2dbd
00000030: c373 86bc 3b8c 85bd 8785 1c3d 1e74 d53b
00000040: 7933 d1bc e8c1 193d 6371 453d 5b34 093c
-0.045313966 0.009280264 0.057637975 -0.05731195 -0.012014123 -0.057237398 0.037096422 0.034381654
-0.019330407 -0.06609497 0.05357447 -0.042434204 -0.016412621 -0.065208875 0.03821328 0.0065140864
-0.02553724 0.03753844 0.048203837 0.008374299

fc1.weight f4 [50, 320]
00000000: dffe 31bd 13db c7bc 96e8 1a3d ec02 683c
00000010: 2e54 0dbc 4c87 2b3c 6cbe 21bd 3d4c 04bc
00000020: 4fad 663d 9416 9abc 5df4 06bd b1a9 9b3c
00000030: 9800 1d3c 52ea 8cbb dbe1 2dbd 93eb fd3b
00000040: bea1 8fba 28ff 2b3c 7af5 48bd 2140 a8bd
00000050: 407e 503d 0722 873d 68b8 c33c 9e62 643d
00000060: 0923 b1bc 015e 483d 06d4 a0bc ab68 4bbd
00000070: 446f 43bd d688 68bd 75ad 1ebd ffcc 72bd
00000080: c1d8 813d c3a6 61bd 02c4 18be 6d57 cbbc
00000090: a3da a03c 0478 f4bc 5a65 a8bc dc49 0b3d
000000a0: 1d4b 87bd 0f8d 13bd b00b 1a3d ed0a c6bb
000000b0: 2160 dabc 9827 86bd 751f 13bc a1f8 7b3d
000000c0: 7e25 4b3c 57ad 97bd 8ae3 92bc fc42 07bd
000000d0: 1154 debd 946f af3c e723 313c f018 c3bb
000000e0: 5bb2 90bd e07f 3cbc d322 8cbd 7f2a 593c
000000f0: 0fc3 833d e9b9 a83d a00f d23d 5dd0 b83a
00000100: 5f85 8b3b 0dda 433d aac0 553b a820 c2bc
00000110: b893 46bd 8c3a 603c 91da 153c 59dc 393d
00000120: 38fb 3f3d 0694 023d 1fd2 c83c becd 29bc
00000130: 765f fc3c b1f6 73bd 788d b9bc 7696 4abd
00000140: 5ce5 46bd 429b b83b 736d 2bbd b6f5 26bd
00000150: 6c45 9fbd 1ece 3939 01bc dfba ccc0 d03b
00000160: dd31 bc3c 7a55 483d 7043 303d ed5e 0f3d
00000170: ce86 19b9 a1ac 893d 073b 31bc 7a34 08bd
00000180: 045b 5ebc e2bb 65bd 905c dcbd 445b 59bd
00000190: 7fc3 29bc fd67 82bd efab 893b 02c1 b63b
000001a0: 1dc3 c83c 908e e9bb aae6 493d 8300 1f3d
000001b0: 0305 c7bd ed65 67bd 850b 1f3d f2f2 b93d
000001c0: 1432 f6bd eb9b 5bbd b01c 433d fd69 893b
000001d0: 89c1 d0bc 037e 543c 62b6 f23b 8e79 51bd
000001e0: 7afc 3b3c 2984 0c3c 3bfe 9f3c d9e9 803d
000001f0: 103a 203d 31b6 ce3d fbb8 303d aa83 41bd
00000200: 0947 ae3d 6859 bb3a 2b76 f53c 3e5d 9ebd
00000210: 80e7 a7bd 7a9e 0cbc 9bf4 2ebd 664c 44bd
00000220: e062 a53c 62a6 21bd 12fe 25bd cbc0 8bbd
00000230: afac 9c3a 3a06 7cbb d150 343d 6a43 02bd
00000240: b559 1dbd d59b 163c 31e6 293d 0602 413d
00000250: 00f9 033d f79e 3c3d 60c5 8d3c 3d20 b3bc
00000260: 119a 823d 6aa7 3339 81e8 8c3c 193a 60bb
00000270: 6aa8 32bb 87f8 91bc ae84 08bd 7658 b7bd
00000280: 9aca 0f3d eac0 5cbd 33a5 d3bd 28a9 41bd
00000290: 3ef2 933d e24d 643d f8ce eabc a6f0 56bc
000002a0: 31a2 f13c 2cc0 163d 48f0 a83c 9f89 9c3d
000002b0: ffb3 e3bd 55b6 f5bd 6bdf aa3c ba68 56bc
000002c0: 2e22 63bd 7021 6d3c 940f e73c f267 833d
000002d0: c611 1e3d 7c84 62bb ae22 9ebd d17d c9bc
000002e0: be92 ea3b c475 98bb 7b18 cebb e14d 393d
000002f0: 1d5b 833d 2ee4 5dbc a2da 86bc 9483 4fbc
00000300: 3bc0 f4bb 62db 933c 0d97 6dbc 3942 283d
00000310: 49ed 513c 0893 5dbb f90e af3c b593 873c
00000320: 211f 28bd aed7 8d3c e993 4dbd 35c9 dabc
00000330: d9c5 8cbc cff3 383d 4ed7 57bd 9a88 7b3c
00000340: 84c1 60bc 4d11 9b3c 3a16 993b cacd c3bc
00000350: 1a26 b73c a0f7 aa3d 01d1 cd3c 3002 3fbd
00000360: 666c 4a3c 9afa cb3c a243 fd3c 10a4 e13b
00000370: e57d 0a3a 6856 5abd 5e87 2dbd 1b21 87bc
00000380: 1cd7 84bc a9f5 e83c 36d7 b43c 5b56 c93c
00000390: f3b1 81bd 5173 6c3b 498e 0e3d cbb1 0e3e
000003a0: 0826 5dbc b00e 4e3c e290 fdbc ef39 59bd
000003b0: 4848 8a3d deab 383c 6b2a 83bd 10b2 08bd
000003c0: 9d4e 69bd ee4b 7cbd 1f9c 4d3c cca6 933c
000003d0: 19f1 94bc b73a 69bb b6b6 1bbd 5236 9bbd
000003e0: 3f62 49bc 90b1 713d 0b6a 213c 61d2 e23d
000003f0: ef7d 8dbd 6643 cebb 501c 223d 5cd5 433d
-0.043455955 -0.024396455 0.037819467 0.014160853 -0.008626027 0.010469269 -0.03948824 -0.008074817
0.056317624 -0.018809594 -0.032947887 0.019001814 0.009582661 -0.004300394 -0.04245172 0.00774903
-0.0010958237 0.010497846 -0.04906223 -0.082153566 0.05090165 0.06598287 0.023891643 0.05575811
-0.021623151 0.048917774 -0.01963235 -0.049660366 -0.047713533 -0.056771122 -0.03873964 -0.05927753
0.06340171 -0.055090677 -0.14918521 -0.024821961 0.019635504 -0.029842384 -0.02055614 0.034005985
-0.066061236 -0.036023196 0.037608802 -0.006043783 -0.026657166 -0.06550521 -0.008979668 0.061516408
0.012399076 -0.07406109 -0.017930765 -0.033022866 -0.10855878 0.02141551 0.010811782 -0.0059539005
-0.070652686 -0.011505097 -0.0684258 0.013254761 0.06433689 0.082385845 0.102568865 0.0014100183
0.0042578424 0.04781537 0.0032616057 -0.023697212 -0.04848072 0.013685834 0.009146349 0.045376156
0.04687044 0.031879447 0.024514256 -0.010363994 0.030807238 -0.059561435 -0.022650465 -0.049459897
-0.048558578 0.0056337425 -0.041852426 -0.040761672 -0.07776913 0.0001771976 -0.0017069579 0.0063706394
0.022972995 0.04890964 0.043033063 0.035002638 -0.00014641436 0.067223795 -0.010817296 -0.03325317
-0.0135715045 -0.056087382 -0.107598424 -0.053065553 -0.010361551 -0.063674904 0.0042014043 0.0055772075
0.0245071 -0.0071275905 0.049292244 0.038818847 -0.09717753 -0.05649369 0.038829345 0.09079541
-0.120212704 -0.05361549 0.04763478 0.004193543 -0.02548291 0.012969497 0.0074069956 -0.051141314
0.011473769 0.008576431 0.019530406 0.06294603 0.039117873 0.10093344 0.04314516 -0.047244705
0.08509643 0.0014293613 0.029963573 -0.07732628 -0.08198452 -0.008582706 -0.042713743 -0.04792442
0.020188749 -0.039465316 -0.040525503 -0.06823882 0.0011953319 -0.003845586 0.044022385 -0.031802572
-0.03841563 0.009192427 0.041479293 0.04712107 0.032219887 0.04605004 0.01730603 -0.021865958
0.06377042 0.00017133137 0.01720071 -0.0034214316 -0.0027261027 -0.017818702 -0.03332966 -0.089524195
0.035105325 -0.053894915 -0.103342436 -0.04728046 0.072239384 0.055738337 -0.028663144 -0.0131188985
0.029496284 0.036804363 0.020622388 0.07643437 -0.11118316 -0.11997668 0.020858487 -0.013086492
-0.05545252 0.014473304 0.02820567 0.0641631 0.03859117 -0.003456383 -0.077214584 -0.024596127
0.0071586063 -0.0046527106 -0.0062895394 0.045240287 0.06413863 -0.013543172 -0.016461674 -0.012665648
-0.0074692047 0.018048946 -0.014501345 0.04107878 0.012812921 -0.0033809561 0.021369444 0.016549924
-0.04104531 0.017314758 -0.050189886 -0.026707271 -0.017184185 0.04515439 -0.052695565 0.015352393
-0.013718013 0.018929148 0.004671839 -0.023901839 0.022357035 0.08348012 0.025124075 -0.046632946
0.012354946 0.02489977 0.030916039 0.006886013 0.0005283042 -0.05330506 -0.042365424 -0.016495278
-0.016215853 0.028437452 0.022075277 0.02457731 -0.06332769 0.0036079476 0.034803662 0.1393501
-0.013497837 0.012576744 -0.030952875 -0.053033765 0.06752068 0.011271445 -0.06404575 -0.03337294
-0.056959737 -0.06159585 0.012549429 0.01802387 -0.01818137 -0.0035587975 -0.038016044 -0.0757872
-0.01229149 0.059007227 0.009851943 0.11075283 -0.069087856 -0.0062946556 0.039577782 0.047810897

fc1.bias f4 [50]
00000000: 6aa3 153c 1084 773c 4ea3 553d a009 193c
00000010: 05d7 cb3d c8cd 783d e386 7b3d 408f 02bd
00000020: 6c5e 00ba 2878 bbbc 8dfd 20bd 3b07 a63c
00000030: 9eba 0ebd e2d9 663c 8f2f 9b3d 7143 343c
00000040: 7db8 193d 3254 723d 9f63 143d 32a6 713d
00000050: 8421 e9bc 922b 58bd 9ce8 203d d2df 35bd
00000060: 45b0 9e3d 6d3a 123c 2238 9c3c a76e 27bc
00000070: 5097 8c3c b4e0 9c3c b891 a53d 3070 a4bc
00000080: e5d1 b2bc 5e77 8bbd b776 f13c 48e8 513c
00000090: ab77 54ba ebbc 6c3d c68a 583a dc7d a73d
000000a0: ecb0 ab3d a8ca 213c c22e 063d 0053 0b3d
000000b0: 24d1 8e3d 6948 07bd 3770 4b3d 3d32 843d
000000c0: 08cb 5f3d 467e e2ba
0.009133199 0.01510717 0.052157693 0.009340674 0.09953121 0.060743123 0.061407935 -0.031874895
-0.00048968825 -0.022884443 -0.039304305 0.02026712 -0.03484594 0.014090033 0.075774305 0.011002407
0.037529457 0.059162326 0.03622782 0.058996387 -0.028458364 -0.052775927 0.039284334 -0.044402905
0.077484645 0.008925063 0.019069735 -0.010219253 0.017161995 0.019150116 0.08084434 -0.020073026
-0.021828601 -0.06809877 0.029475553 0.012811728 -0.000810499 0.057797354 0.0008260425 0.08178303
0.083833545 0.009874977 0.032759435 0.0340147 0.06973484 -0.03302804 0.049667563 0.06454895
0.054636985 -0.0017280064

fc2.weight f4 [10, 50]
00000000: 34ea 0c3e c642 2abd 60b9 17be 5ff1 1d3e
00000010: c3b9 18be 2fa1 67be ddc8 653e b76f 443e
00000020: 0193 82be 8f36 68be 1315 b73d 5950 4d3e
00000030: 1814 79bd 02a6 4ebe efcc febd d0c9 393e
00000040: 0d89 1c3e 6556 813e a5af 59be b481 b4bd
00000050: eec5 ebbd 1bd2 acbd 6a34 82be 6010 e53c
00000060: 55d9 97be cda3 ebbd 1db6 07bd 66da 163e
00000070: 9e53 1bbe 2cdd 1ebe 5482 03be a2ef d93c
00000080: c79e 40be 5605 fc3d 2303 bbbc 115e 90bd
00000090: 5b0e 3dbe de5b 48be d80a 4c3e 8e56 853e
000000a0: 6a34 44be e1b4 813e 7ad2 fbbc 9ce4 a8bd
000000b0: 90d7 14be 667f 223e 05e7 2a3e 1d33 563e
000000c0: 5914 2abd f256 573e 76f9 0fbe 15d4 0fbe
000000d0: 5353 c03d 8d7e 0d3b a687 863e c347 803e
000000e0: 0560 01be 7e97 17be b023 253e 67bc 2abe
000000f0: 61df 143c dfbc ccbd 1a7b 84be c876 89be
00000100: 25f5 373e fcae cabd 4e5b 2cbe 09be a4bd
00000110: 24e8 8fbd 8aab 7b3e 537c c3bd 883a f2bd
00000120: d1f5 313e 1f93 9cbc 8079 203e a085 803d
00000130: c652 673e 7a05 05be 8655 0a3d 4dea 363e
00000140: e7e9 173e 507e 13be af7d 15be d37b 7abe
00000150: 80f1 b8bd b808 443e f40d 79be 71bb 4cbe
00000160: 8175 08be 1fa6 3f3e c9d2 5a3e 2719 573e
00000170: ed8e 8bbe 5b8e 953e 03c2 523e 98d1 49be
00000180: b5cb cebd 0140 cbbd 5629 7d3e 0141 2bbe
00000190: f8c8 15be 5fac 91bd 895f 403e 88b4 c6bd
000001a0: 8301 37be b770 76bd 8e09 723e 2d3c 0ebe
000001b0: 9a5e 37be 983c f0bd 6acc d93d 2d0e a8bc
000001c0: 7b61 f7bd a493 933c a321 97bd 2ce9 2b3e
000001d0: a92c 5abe c87d 0c3d c240 49bc dac8 43bd
000001e0: 4572 043e da2e 63bd 71e6 eb3d 6267 f0bd
000001f0: c898 42be ab30 25bc 9f2d 39be a2c1 293e
00000200: 7761 20be 6333 4c3e 73a4 333e 8253 54bd
00000210: 7878 7fbd ca43 093e 755d c63c 067f a7bd
00000220: dad8 b73d f084 2a3e 2560 afbc c646 c2bc
00000230: 4598 383e 3cb3 10be 0872 183e 70ae 823e
00000240: e543 783e ffc1 023e 3ed4 c73c 10ad 263e
00000250: d2e9 673d e6cf d5bd 50e2 0b3e 085e 92bd
00000260: a888 363e c9f6 e1bd fe32 b1bd 97c6 36be
00000270: c53c b6bd fda4 8d3c caca 103e a5ea 423e
00000280: 7195 15bc eca8 3f3e 1488 d3bd 0b5e 0b3e
00000290: dfa6 623e 47c6 153e eb19 9bbd 2f15 89bc
000002a0: 73bc b5bd 3494 58be 0546 0c3e 1d8e 7c3d
000002b0: 8e09 1d3e be35 113e e350 18bd f6df 823c
000002c0: e5c3 afbd dd5a 273e f8ac 2e3e 7854 373e
000002d0: 94a0 fbbd 1589 f93c a5b1 22bd 7ee0 c73d
000002e0: a241 e8bd c9fd 383e a98a acbd a100 a1bd
000002f0: fcb3 d0bd 1038 4ebe 1b92 14be f93b c6bd
00000300: 0faa b3bd a490 553d 2c08 723e 7f16 fb3d
00000310: 62f6 de3d fe54 35be 8599 54bd 9e3e 30be
00000320: 14ab 33be fa5a 8e3e a83b 97bd 38d0 04be
00000330: 7f93 933e 449d 5f3d e119 ea3a 7b78 34bc
00000340: dfe6 1c3e 9b94 113e e189 81be b851 4ebe
00000350: d145 313e 5ecb e13d d459 103e 8431 88bd
00000360: 53c4 c3bd a593 713e aef6 02be a90c 8b3e
00000370: 4c28 e73d e3eb 0abe 8630 09be dfa9 4dbc
00000380: 1a21 363e 1470 b7bc 2989 79bd dfc3 c7bd
00000390: 712b 873d e7b4 4dbe 5cf6 223e e97d a9bd
000003a0: 69cd 883e 4b6a 70be 5b0f 873e 9276 30be
000003b0: 24fd 053e 3bed 573e bcd6 f5bd ae2c bebd
000003c0: 28ec 753d 963c 94bc c6de 7f3d 3e55 a13c
000003d0: 5c12 24be c804 3cbe c830 dfbd e511 653e
000003e0: 27ab 1c3e eca2 ebbd 986d 333e 726f 4bbe
000003f0: cbae afbd 6a00 9d3e bd6f 39be 03f0 dfbd
0.13761216 -0.041567586 -0.14816809 0.15424107 -0.14914612 -0.2262008 0.22439905 0.19183241
-0.2550278 -0.22677062 0.089395665 0.20050181 -0.06081018 -0.20180514 -0.12441432 0.18143392
0.15286656 0.25261226 -0.2125841 -0.088138014 -0.115123615 -0.08438512 -0.25430614 0.02796191
-0.29658 -0.11505852 -0.03313266 0.1473175 -0.15168616 -0.15514058 -0.12842685 0.026603524
-0.18810569 0.12305705 -0.022828644 -0.07049192 -0.18462507 -0.19566295 0.19926012 0.26042598
-0.1916062 0.25333312 -0.030740011 -0.08246729 -0.14535356 0.15868911 0.1668969 0.20917936
-0.04152331 0.21029261 -0.14060006 -0.14045747 0.09390893 0.0021590323 0.26275367 0.2505475
-0.12634285 -0.14803883 0.16126895 -0.16673432 0.009086461 -0.09996962 -0.2587517 -0.26848435
0.17964609 -0.09896657 -0.16831705 -0.08044059 -0.07026699 0.24577156 -0.09545197 -0.1182757
0.17378928 -0.019113122 0.15671349 0.06275487 0.2259017 -0.1299037 0.033772968 0.17862816
0.1483532 -0.14403653 -0.14598726 -0.24461298 -0.090304375 0.19143951 -0.24321729 -0.19993378
-0.13326074 0.18715714 0.2136947 0.21005689 -0.2725748 0.2921017 0.20581822 -0.1970886
-0.10097448 -0.09924317 0.247228 -0.16724016 -0.14627445 -0.07112955 0.18786444 -0.09702402
-0.1787167 -0.060166087 0.23636457 -0.13890143 -0.17907181 -0.11730307 0.10634692 -0.020514572
-0.1207914 0.018014736 -0.073794626 0.16788167 -0.21306099 0.03429964 -0.012283506 -0.04779897
0.12934215 -0.055464603 0.115185626 -0.11738469 -0.19003594 -0.010082404 -0.1808381 0.16577771
-0.1566218 0.19941477 0.17543201 -0.05183745 -0.062370747 0.13404766 0.024214486 -0.08178525
0.08976908 0.16652274 -0.02140815 -0.023715388 0.18026836 -0.14130872 0.1488725 0.2552371
0.2424465 0.12769316 0.024393197 0.16276956 0.056619473 -0.10440044 0.1366055 -0.07146841
0.17825568 -0.11033399 -0.08652304 -0.17849194 -0.088983096 0.017290587 0.14139858 0.19034822
-0.009129868 0.18716782 -0.10328689 0.13610093 0.22133969 0.14626418 -0.07573303 -0.016733734
-0.088738345 -0.21150285 0.13698585 0.061658967 0.15335676 0.14180657 -0.037186515 0.015975934
-0.08582286 0.16343255 0.1705817 0.17903316 -0.12286487 0.030460874 -0.039720196 0.09759615
-0.113406435 0.18065561 -0.08424885 -0.07861448 -0.10190579 -0.20138574 -0.1450886 -0.096794076
-0.087726705 0.052139893 0.2363593 0.1226015 0.108868375 -0.17708203 -0.05190422 -0.17211387
-0.1754573 0.27803785 -0.073844254 -0.12970054 0.28823468 0.05459334 0.0017860496 -0.011015053
0.15322445 0.14216845 -0.25300506 -0.2014836 0.17311789 0.11025117 0.14096767 -0.06650069
-0.0955893 0.23591478 -0.12789413 0.27158096 0.11286983 -0.13566546 -0.13397416 -0.012552707
0.17786065 -0.02239231 -0.06092182 -0.09754156 0.06600083 -0.2008854 0.15914291 -0.082759686
0.26719216 -0.23478048 0.26378903 -0.17232731 0.13084847 0.2108659 -0.12003848 -0.09285866
0.06003967 -0.018095296 0.062468313 0.019693967 -0.16022629 -0.18361199 -0.10897976 0.22370107
0.15299664 -0.11505684 0.17522275 -0.19866732 -0.08578261 0.30664378 -0.18109031 -0.109344505

fc2.bias f4 [10]
00000000: c6da a73d 13d5 d13e 839b 393e d4ba 153b
00000010: 7cfd e5bd f15d 30be 631d 57bd d3db e5bd
00000020: 76ce dfbc 8417 963b
0.081960246 0.40982875 0.1812573 0.0022846954 -0.11229989 -0.17223336 -0.05251826 -0.11223569
-0.027320128 0.00458044
