results/model.pth (torch, 262383 bytes, 10 tensors)

conv1.weight f4 [10, 1, 5, 5]
0	0x3df5b33d	0.119970776
1	0xbe44f702	-0.19234851
2	0xbd482cd9	-0.048870895
3	0xbe5243a0	-0.2053361
4	0x3c567411	0.013089196
5	0x3e21f186	0.1581479
6	0x3e69f065	0.2284561
7	0x3e1e6e3a	0.15471736
8	0xbe03e3be	-0.12879845
9	0xbe1ca614	-0.15297729
10	0xbd8c6650	-0.06855452
11	0x3dac8f8d	0.08425818
12	0xbe19f59c	-0.15035099
13	0x3d079c59	0.03310809
14	0x3d898ad3	0.06715932
15	0xbc68621d	-0.014183548
16	0x3e56520a	0.20929733
17	0x3dee35cd	0.116313554
18	0x3d77a927	0.06046405
19	0x3bca8539	0.006180432
20	0x3df376c8	0.1188789
21	0xbdcebad9	-0.10094232
22	0x3e1df48f	0.15425323
23	0x3e4640bb	0.1936063
24	0x3df16443	0.117867015
25	0x3e39c48b	0.18141381
26	0xbde2d0fd	-0.110750176
27	0xbad172a3	-0.0015979599
28	0x3d9eef47	0.07760482
29	0x3c7b6eb2	0.015346216
30	0x3e3d0240	0.1845789
31	0x3c4b78cf	0.01241894
32	0x3e5e9487	0.21736346
33	0xbdd04678	-0.10169691
34	0xbdfc045f	-0.12305521
35	0x3e27ad7b	0.16374771
36	0x3de10d13	0.10988822
37	0x3ddfb6bc	0.10923526
38	0x3e0daa87	0.13834582
39	0x3db8f174	0.090304285
40	0x3e45ad7f	0.19304465
41	0x3db115da	0.08646746
42	0xbd35b0e7	-0.04435816
43	0x3dcbd724	0.09953144
44	0x3d265f85	0.04061844
45	0xbcc71e31	-0.024306389
46	0xba1ee3f0	-0.0006061187
47	0xbdc24175	-0.09485141
48	0xbe28b4db	-0.16475241
49	0x3bc439a9	0.005988319
50	0x3e54485f	0.20730732
51	0x3d9086ca	0.07056959
52	0xbe236dda	-0.15959874
53	0x3d893d4e	0.06701146
54	0xbc8bc547	-0.017061843
55	0xbe226d5f	-0.15862034
56	0x3e2c3855	0.16818364
57	0x3cba6a40	0.022755742
58	0xbb95768c	-0.004561251
59	0x3d4e1b8a	0.050319232
60	0x3dd919a9	0.106005974
61	0xbd832c71	-0.06404961
62	0xbd2263c7	-0.039645936
63	0x3d26fef6	0.040770493
64	0x3db542bb	0.088506185
65	0xbbb47d0c	-0.005508071
66	0xbd99fd1c	-0.0751898
67	0x3cd745f7	0.026278479
68	0x3e419609	0.1890489
69	0xbe1002dc	-0.14063591
70	0x3da45141	0.080233105
71	0xbd8f0e43	-0.06985142
72	0x3d8b501d	0.0680239
73	0x3e304898	0.17215192
74	0xbdad92d8	-0.08475274
75	0x3e3d75b0	0.18501925
76	0xbca91aff	-0.020642756
77	0x3ddaff56	0.10693233
78	0xbe58d763	-0.21175914
79	0xbe0f7150	-0.14008069
80	0x3e1e4c98	0.15458906
81	0x3e612fe7	0.2199093
82	0x3d656c59	0.05601153
83	0xbe138d35	-0.14409335
84	0xbe3ce2da	-0.18445912
85	0xbceeadc8	-0.0291356
86	0x3c96d2f7	0.018411143
87	0x3e31a574	0.17348272
88	0x3d811ba1	0.06304098
89	0x3e48d680	0.19613075
90	0x3e167b26	0.14695415
91	0x3e6bf082	0.23040965
92	0x3e0cfe89	0.13768972
93	0xbd59c94f	-0.0531705
94	0xbdfe7d23	-0.12426212
95	0xbdbb2054	-0.091370255
96	0x3d3309e9	0.043710623
97	0x3d7f934c	0.062396333
98	0xbde5fc6e	-0.11229788
99	0xbdd27dfa	-0.10277934
100	0xbe30151d	-0.17195554
101	0xbd925381	-0.07144833
102	0x3e3bce95	0.18340524
103	0xbd56113d	-0.052262533
104	0x3dbefe3d	0.09325836
105	0xbe294455	-0.16529973
106	0xbdf95856	-0.12175052
107	0x3e2eb0ac	0.17059582
108	0x3db18309	0.08667571
109	0xbdef8229	-0.11694748
110	0xbcb084ed	-0.021547759
111	0xbdc84827	-0.09779387
112	0xbdae6e37	-0.085171156
113	0x3e8d7258	0.276263
114	0x3e831563	0.25602254
115	0x3e583a81	0.21116067
116	0xbe27bc0b	-0.16380326
117	0x3d69baf7	0.05706307
118	0x3cd50743	0.02600444
119	0xbe14e621	-0.14540912
120	0x3e4468e8	0.19180644
121	0xbdda255f	-0.10651659
122	0xbda50d60	-0.08059192
123	0x3d793a3d	0.060846556
124	0xbe49d00a	-0.19708267
125	0x3da92fe5	0.08261088
126	0xbe3b7d7e	-0.1830959
127	0x3e3be1b1	0.18347813
128	0x3e36e847	0.17862044
129	0x3e4b571e	0.19857451
130	0xbd55c6cb	-0.052191537
131	0x3da2dc39	0.079521604
132	0x3e879cb2	0.26486737
133	0xbda8a52b	-0.08234628
134	0xbdb75367	-0.089514546
135	0x3e9fee59	0.31236532
136	0x3de688c3	0.11256554
137	0xbe38eeb4	-0.18059808
138	0xbda3feab	-0.080075584
139	0xbdc21af3	-0.094777964
140	0x3e879633	0.2648178
141	0x3e8af474	0.27139628
142	0xbe7ba136	-0.24573216
143	0xbe2baf19	-0.16766013
144	0xbe02d85e	-0.1277785
145	0x3dcf5b98	0.10124892
146	0x3d272984	0.040811077
147	0x3cbee494	0.023302354
148	0xbe774628	-0.24147856
149	0xbe2c11c2	-0.16803649
150	0xbe5999c5	-0.21250065
151	0xbe20c19c	-0.15698856
152	0xbda03cb5	-0.07824079
153	0xbe0e7ea1	-0.13915493
154	0x3ce44593	0.027865207
155	0xbe055c04	-0.13023382
156	0xbde357de	-0.11100744
157	0xbde9d84e	-0.1141821
158	0xbe865096	-0.26233357
159	0x3e9da215	0.3078772
160	0xbcb5f619	-0.022212075
161	0xbe24c7d1	-0.16091849
162	0xbd711fc4	-0.058868185
163	0xbe050b1c	-0.12992519
164	0x3ebbd2d4	0.36684287
165	0x3deddef9	0.11614794
166	0xbc918b16	-0.017766517
167	0x3d5c9d93	0.053861212
168	0xbd74c1b9	-0.05975506
169	0x3e821336	0.25405282
170	0x3e7d30ff	0.24725722
171	0x3e001980	0.12509727
172	0xbc8ff63a	-0.017573465
173	0xbdda64a2	-0.106637254
174	0x3e6ebb07	0.23313533
175	0xbd20ad7b	-0.039227944
176	0xbd54d9fe	-0.051965706
177	0xbe3a320a	-0.18183151
178	0xbe073dae	-0.13207123
179	0x3d595e10	0.05306822
180	0xbe8fd98c	-0.28095663
181	0xbd83e907	-0.06440931
182	0xbe2a13ce	-0.16609117
183	0xbe822b82	-0.2542382
184	0xbd62e011	-0.055389468
185	0xbe84f25e	-0.2596616
186	0xbde51668	-0.11185914
187	0xbe538666	-0.20656738
188	0xbe1d9779	-0.15389813
189	0x3d08954b	0.033345502
190	0x3e3f767f	0.18697546
191	0xbd87832c	-0.06616816
192	0xbc9e8854	-0.019352116
193	0x3d023b8a	0.031795062
194	0x3dc2adbe	0.09505795
195	0x3d6e1b28	0.058131367
196	0x3da4bb0e	0.0804349
197	0x3ceb767f	0.028743027
198	0x3d70715e	0.058701865
199	0xbdbebcaf	-0.09313332
200	0xbe8c86d7	-0.27446625
201	0xbd5e7166	-0.054307364
202	0xbdf6d820	-0.12052941
203	0x3d3059e2	0.04305447
204	0x3e0bf1b6	0.13666424
205	0x3dfe9504	0.12430766
206	0xbc2d2525	-0.010567938
207	0xbe28b846	-0.16476545
208	0x3c4d6960	0.01253733
209	0xbcf01f4c	-0.029311799
210	0xbdd605fd	-0.10450361
211	0x3e04746d	0.12935038
212	0x3e1eaa51	0.15494658
213	0xbe63fb81	-0.2226391
214	0xbc4b7763	-0.012418601
215	0x3de27ac1	0.1105857
216	0x3dd6b48e	0.10483657
217	0x3e3dc1f3	0.18531017
218	0xbdfd1582	-0.12357618
219	0xbe5c6bd2	-0.21525505
220	0x3d4087dd	0.04700457
221	0xbd66996b	-0.056298655
222	0x3e50b35b	0.20380919
223	0x3dd12686	0.10212426
224	0xbdedc15a	-0.116091445
225	0xbd31b79b	-0.04338799
226	0x3e39b1e3	0.18134265
227	0x3ddcdeb5	0.107846655
228	0xbe087f83	-0.13329892
229	0xbd1323b3	-0.035922717
230	0xbb91bfc0	-0.004447907
231	0x3dad5428	0.08463317
232	0x3d6f0364	0.058352843
233	0x3c633eb3	0.013869929
234	0x3d9c3c4c	0.07628688
235	0x3d95cdea	0.073146656
236	0x3e282ef9	0.16424169
237	0xbd5061b6	-0.050874434
238	0xbdf8325f	-0.121189825
239	0x3dfe56bb	0.12418886
240	0x3bbb7b95	0.0057215192
241	0x3e8143a9	0.25246933
242	0xbd792cff	-0.060833927
243	0xbe311b32	-0.1729553
244	0xbc81360a	-0.015772838
245	0x3c81047c	0.015749209
246	0x3e0b49b4	0.13602334
247	0xbe58e483	-0.2118092
248	0xbdca53df	-0.098792784
249	0x3e15da2b	0.14634006

conv1.bias f4 [10]
0	0x3d8c9f8d	0.068663694
1	0x3f00d757	0.5032858
2	0x3ec4c3a6	0.38430518
3	0xbde8b22f	-0.11362111
4	0x3c14c530	0.009080216
5	0xbe2f9f3d	-0.17150588
6	0x3e3aa0a7	0.18225347
7	0x3e6abc32	0.22923353
8	0x3dd77e0e	0.1052209
9	0x3d0cac8e	0.03434425

conv2.weight f4 [20, 10, 5, 5]
0	0xbd902f81	-0.07040311
1	0xbd6a15d7	-0.057149734
2	0xbc67d2ab	-0.014149348
3	0xbcb1aab0	-0.021687835
4	0xb9dccfb0	-0.0004211641
5	0xbd51f495	-0.051258642
6	0xbd3fee0c	-0.04685788
7	0xbdb2da42	-0.087330356
8	0xbda2337a	-0.079199746
9	0xbb9a3d1c	-0.004706992
10	0xbcc45ec8	-0.023970976
11	0xbd6bbadb	-0.057551246
12	0xbd757c62	-0.059933074
13	0xbdab527c	-0.08365342
14	0xbca05e26	-0.019576143
15	0x3cce9d22	0.025221411
16	0xbd2b702d	-0.041855026
17	0x3c3bf62b	0.011472265
18	0xbc6ce25c	-0.014458265
19	0x3bfbcfd5	0.0076846876
20	0x3cd90e22	0.026495997
21	0xbc2475d6	-0.01003786
22	0xbd555278	-0.0520806
23	0xbc9bbbd5	-0.019010464
24	0x3c9cfec9	0.01916446
25	0x3d7cf1bb	0.06175397
26	0x3b5b0ab4	0.0033423128
27	0xbd982ed2	-0.07430805
28	0xbc944bf3	-0.018102622
29	0x3d9aa5ff	0.075511925
30	0xbd53606b	-0.051605623
31	0x3bf6fbf4	0.0075373594
32	0xbdba1649	-0.09086282
33	0xbc5daa84	-0.013529424
34	0xbca9e5f7	-0.020739539
35	0xbdaeafb4	-0.085296065
36	0xbd2ec49d	-0.042667974
37	0xbd87b076	-0.06625454
38	0x3cdae395	0.026719848
39	0x3d6abc5f	0.05730855
40	0xbc893396	-0.01674823
41	0xbca36348	-0.019944802
42	0xbcf3ee6c	-0.029776774
43	0x3dc870e2	0.09787156
44	0x3bd2b481	0.006430209
45	0xbd266fe4	-0.04063405
46	0xbd310cc0	-0.04322505
47	0xbbded3dd	-0.0068001584
48	0x3c0a6f9a	0.008449459
49	0xbcb7551f	-0.022379456
50	0xbb01b170	-0.00197896
51	0x3cd51e3f	0.026015399
52	0x3d3653ac	0.04451339
53	0xbc967e64	-0.018370815
54	0xbc937556	-0.018000286
55	0xbd442655	-0.04788812
56	0x3ab20bde	0.0013583859
57	0xbcc04399	-0.023469733
58	0x3c253dfe	0.010085581
59	0xbcc85f59	-0.024459528
60	0xbd9469ec	-0.072467655
61	0x3bbbaa02	0.0057270536
62	0x3d0c3529	0.034230385
63	0xbca996c5	-0.020701775
64	0x3cc1ef65	0.023673723
65	0xbd7b0f9f	-0.061294194
66	0x3d8458b1	0.06462229
67	0x3da1632b	0.07880243
68	0x3cfaa090	0.03059414
69	0xbd4c44cd	-0.0498703
70	0xbd86e76d	-0.0658711
71	0x3d024d2e	0.031811886
72	0x3d95beb8	0.07311767
73	0xbcde4216	-0.027131122
74	0x3cc0ac4b	0.023519656
75	0x3d775b1f	0.060389634
76	0x3d2dc992	0.04242856
77	0xbda49f58	-0.08038205
78	0xbd74f356	-0.059802376
79	0xbdb44318	-0.088018596
80	0xbd696568	-0.056981474
81	0xbd4a9e5a	-0.049467422
82	0xbc91703d	-0.017753715
83	0xbca42329	-0.020036297
84	0xbd35df27	-0.044402268
85	0xbb8c6c5d	-0.004285379
86	0xbd7ac2a6	-0.061220787
87	0x3d0ad610	0.033895552
88	0xbd2f22dc	-0.042757854
89	0xbcb6fe3c	-0.022338025
90	0x3d6bd692	0.057577677
91	0xbd756bcb	-0.059917253
92	0xbd92df0a	-0.071714476
93	0x3d0ef454	0.03490098
94	0xbc024a84	-0.007952336
95	0xbd69bc4d	-0.057064343
96	0xbcd1dd47	-0.025618209
97	0xbc7dc743	-0.015489402
98	0x3b729081	0.00370124
99	0xbdc9a1ed	-0.09845338
100	0x3d0772e2	0.033068545
101	0x3d06054a	0.032719888
102	0xbd8f2d02	-0.069910064
103	0xbd1db6a0	-0.038504243
104	0x3d22074b	0.039557736
105	0x3d811edd	0.06304715
106	0xbc060bcd	-0.008181524
107	0xbcd4c7e6	-0.025974225
108	0x3ab829e2	0.0014050568
109	0x3ca70100	0.020386219
110	0x3c82ed78	0.015982375
111	0x3cae516e	0.021279063
112	0x3ca15c81	0.01969743
113	0xbce84b4a	-0.028356213
114	0x3d96e798	0.07368392
115	0x3d17778b	0.03697924
116	0x3b8d7a3c	0.00431755
117	0x3d602aa7	0.054728176
118	0xbbe7bc0f	-0.007071979
119	0xbd12b036	-0.03581258
120	0xbd636c9a	-0.055523492
121	0xbc1e6a01	-0.009668828
122	0xbcf6230a	-0.030046005
123	0x3d5e7096	0.05430659
124	0x3b4f7010	0.0031652488
125	0x3dc502a2	0.09619643
126	0x3dae7e99	0.0852024
127	0x3d181ec2	0.037138708
128	0xbdb040f4	-0.08606139
129	0xbcdcf3a2	-0.026971642
130	0x3d96ac07	0.0735703
131	0x3c57ad24	0.013163839
132	0xbb8554a4	-0.004068928
133	0xbcfb1df0	-0.030653924
134	0xbc854139	-0.016266452
135	0xbdab09a9	-0.08351452
136	0xbd753b60	-0.059871078
137	0xbd5056a7	-0.050863888
138	0xbd63010a	-0.055420913
139	0xbc95dd1c	-0.01829391
140	0x3c897b66	0.016782474
141	0x3d4f5849	0.050621305
142	0xbc35f937	-0.011106781
143	0x3d64231a	0.055697538
144	0x3d2e5050	0.04255706
145	0xbc866325	-0.016404698
146	0xbc181a85	-0.0092836665
147	0x3d0b9e1e	0.03408634
148	0x3cbc368d	0.02297523
149	0x3d21dd5f	0.039517757
150	0xbd5a712f	-0.053330597
151	0x3c8ab4ab	0.016931852
152	0x3ba16fea	0.0049266713
153	0xbd0c02ef	-0.034182485
154	0x3c880a43	0.016606456
155	0xbc260b6a	-0.010134557
156	0x3bd13b67	0.006385255
157	0xbb9380f2	-0.0045014555
158	0xbd8f6a06	-0.07002644
159	0x3cd1b67b	0.025599709
160	0x3d39d7c4	0.045371786
161	0x3d54a965	0.05191936
162	0xbbae3642	-0.0053165266
163	0x3cad11e3	0.021126693
164	0xbcccf269	-0.025017934
165	0x3d686a24	0.05674185
166	0x3d33ee6c	0.04392855
167	0x3d7839de	0.06060206
168	0xbcec08ec	-0.028812848
169	0xbd2f716c	-0.042832777
170	0x3d0c8830	0.034309566
171	0x3c75ea9b	0.015009548
172	0xbd7a089a	-0.06104336
173	0xbd48644e	-0.048923783
174	0xbabc43ce	-0.0014363469
175	0x3bde8bda	0.006791574
176	0x3d8d6669	0.06904299
177	0x3d60c22e	0.054872684
178	0xbd3d3b1c	-0.04619895
179	0x3984195f	0.00025195905
180	0xbc47f391	-0.012204067
181	0x3d795583	0.060872566
182	0x3cf6c13f	0.030121444
183	0xbdaa8ef0	-0.083280444
184	0x3cce2dd2	0.025168333
185	0x3d39fb38	0.045405596
186	0x3dbb4f8c	0.09146032
187	0x3dc28876	0.09498684
188	0xbd364ae0	-0.044505
189	0xbc91c763	-0.01779527
190	0xbc4fc2ad	-0.012680692
191	0x3bb97257	0.0056593823
192	0x3d92c411	0.07166303
193	0x3ce64253	0.028107798
194	0xb9375b32	-0.00017486213
195	0x3d3a0b80	0.045421124
196	0x3c801d86	0.015639078
197	0xbd365284	-0.044512287
198	0xbd0442a9	-0.032290135
199	0x3cdd621e	0.027024325
200	0x3d119eba	0.035551764
201	0xbd8565aa	-0.065135315
202	0x3b2c2875	0.0026269231
203	0xbd66f4b8	-0.056385726
204	0xbd92c012	-0.07165541
205	0xbd4689e6	-0.048471354
206	0x3d3217d9	0.043479774
207	0xbc7d1985	-0.015447979
208	0xbcee4f35	-0.029090503
209	0x3cac301e	0.021019038
210	0xbbd32985	-0.0064441585
211	0xbd45334e	-0.04814463
212	0x3d71b1ca	0.059007443
213	0x3ce7f215	0.028313676
214	0x3c4b032a	0.012390891
215	0x3ccb2571	0.024798127
216	0xbd60b535	-0.054860312
217	0x3b04cd43	0.0020263947
218	0x3b9351af	0.0044958214
219	0xbcb6d5e0	-0.02231878
220	0x3842d47f	4.6451107e-05
221	0xb9e408e9	-0.00043494187
222	0xbd830ff4	-0.06399527
223	0x39f6463a	0.000469731
224	0x3d870c62	0.06594159
225	0x3d28f1d7	0.04124626
226	0x3a24fc8c	0.0006293736
227	0xbd5b40b0	-0.053528488
228	0xbd8d114c	-0.06888065
229	0xbd87dcb1	-0.066338904
230	0x3c812d48	0.015768662
231	0xbd187cf5	-0.037228543
232	0xbc1d6067	-0.009605504
233	0x3b968d2a	0.004594465
234	0xbd5a56a6	-0.05330529
235	0xbce5e8b8	-0.02806507
236	0x3c1daabb	0.009623225
237	0xbd87b190	-0.06625664
238	0x3cfed65b	0.031108072
239	0x3d9f0cce	0.07766114
240	0xbce2c512	-0.027681861
241	0xbcc2cd89	-0.023779647
242	0xbc75e677	-0.01500856
243	0xbb554889	-0.0032544455
244	0xbd05b860	-0.032646537
245	0x3cf99c35	0.030469993
246	0xbd3811bc	-0.044938788
247	0x3c93c8ca	0.01804008
248	0x3cd79f9a	0.026321221
249	0xbd7fc680	-0.062445164
250	0x3c821ff3	0.015884375
251	0x3d259694	0.040426806
252	0x3d595417	0.05305871
253	0xbd6933ac	-0.056934044
254	0x3d3f0ed7	0.04664501
255	0x3d0eae22	0.034834035

conv2.bias f4 [20]
0	0x3db26f6c	0.08712658
1	0xbb8e3a28	-0.004340429
2	0x3dac9f06	0.08428769
3	0x3cac1e37	0.021010501
4	0x3bcc5180	0.0062353015
5	0x3cd6f503	0.026239878
6	0x3d2367b3	0.039893817
7	0x3d9fed6b	0.07808956
8	0x3c9ffa61	0.01952857
9	0x3cf1416b	0.029450139
10	0x3d62294e	0.055215172
11	0x3d903bd2	0.0704266
12	0x3df15eb7	0.117856435
13	0x3cfab073	0.030601716
14	0x3e202830	0.1564033
15	0x3dbfdc8d	0.093682386
16	0x3d1cbf7e	0.03826856
17	0x3d994efd	0.07485769
18	0x3dc2dc4a	0.09514673
19	0x3db6ee1b	0.08932134

conv.weight f4 [20, 20, 5, 5]
0	0x3c215852	0.009847717
1	0x3d17bbb5	0.037044246
2	0xbd99e5ad	-0.0751451
3	0xbcef643e	-0.029222604
4	0xbd05abfb	-0.032634716
5	0x3c201b78	0.009772174
6	0x3e004c7e	0.1252918
7	0x3b397a18	0.0028301533
8	0xbd40022c	-0.04687707
9	0x3d46b6f3	0.048514318
10	0x3c9faaea	0.019490678
11	0x3dcf671c	0.101270884
12	0xbc9ba0aa	-0.018997509
13	0xbda9f331	-0.08298338
14	0x3cbe950f	0.023264436
15	0x3c5c07b8	0.013429575
16	0x3d9ea15e	0.07745622
17	0x3ca723ab	0.02040275
18	0xbcc30b4c	-0.023809098
19	0xbc9179f0	-0.01775834
20	0xbd1695a0	-0.036763787
21	0x3d1ef5c4	0.0388086
22	0x3c85afb8	0.01631914
23	0x3d6005f2	0.05469317
24	0x3cd82a5b	0.026387384
25	0x3ce5d808	0.028057113
26	0x3d60b682	0.054861553
27	0x3ce14815	0.027500192
28	0xbcd257bc	-0.0256766
29	0xbc0ee040	-0.008720458
30	0x3c900b9a	0.017583657
31	0xbd56e528	-0.052464634
32	0xbd2bee57	-0.041975345
33	0xbc1f5d18	-0.009726785
34	0x3cfefc75	0.03112624
35	0x3ccfaf30	0.02535209
36	0xbd19c1aa	-0.037538208
37	0xbcc78f57	-0.024360342
38	0xbc321135	-0.01086836
39	0x3cb594af	0.022165624
40	0x3cc8e6d6	0.024524134
41	0x3c7a59cd	0.015280199
42	0x3d3d46f7	0.046210255
43	0xbd3c604a	-0.045990266
44	0x3ce40bb5	0.027837614
45	0xbca5e88d	-0.02025249
46	0x3c83e07b	0.016098252
47	0xbd6df4f2	-0.058094926
48	0xbbebc3c5	-0.0071949684
49	0x3cef1371	0.029184075
50	0xbbfa34d7	-0.0076356935
51	0xbd0ea87d	-0.03482865
52	0xbdb5a1c1	-0.08868743
53	0xbcdad7ce	-0.026714232
54	0x3c8d7a04	0.017270096
55	0xbd2f6147	-0.04281738
56	0xbd1d6929	-0.038430367
57	0xbd9213e9	-0.07132704
58	0xbdb11c3c	-0.086479634
59	0xbcbab1d8	-0.02278988
60	0x3d8882d1	0.06665576
61	0x3d84f255	0.06491534
62	0x3d0a5d7a	0.033780552
63	0xbcdc9ea3	-0.026931113
64	0x3c9b6172	0.018967364
65	0x3c5c78eb	0.013456563
66	0x3de01fa8	0.10943538
67	0x3dc94bc9	0.09828908
68	0x3d7843db	0.060611587
69	0xbb98d707	-0.004664305
70	0xbd8f420d	-0.0699502
71	0xbce12e35	-0.027487854
72	0x3838543e	4.3947475e-05
73	0x3d55bf73	0.052184533
74	0x3d1578f8	0.036492318
75	0xbd16c9a6	-0.0368134
76	0xbc0d7255	-0.008633216
77	0xba22cb1a	-0.0006210074
78	0x3b00f96f	0.0019679924
79	0xbdd4354c	-0.10361728
80	0xbbfff3f7	-0.0078110653
81	0x3d5a50ff	0.0532999
82	0xbc7a6e95	-0.015285154
83	0x3ca9fb07	0.020749582
84	0xbc22541f	-0.009907751
85	0xbda2b68e	-0.07944976
86	0xbd461092	-0.048355646
87	0x3c5969af	0.013269826
88	0x3b4383df	0.002983324
89	0xbd0a0771	-0.033698503
90	0xbda409bd	-0.0800967
91	0xbdd788c4	-0.10524133
92	0xbce25296	-0.02762727
93	0xbc539e48	-0.012916155
94	0xbd2b13ee	-0.041767053
95	0xbd02136c	-0.031756803
96	0xbca3326e	-0.019921508
97	0xbcfda40c	-0.030962013
98	0xbdd703f4	-0.10498801
99	0xbcb9f6cb	-0.022700688
100	0xba3ef810	-0.0007284889
101	0x3abc8592	0.0014383069
102	0x3c554ebb	0.013019259
103	0x3bbed28e	0.00582344
104	0x3c00a09e	0.007850794
105	0xbbcd50e5	-0.006265747
106	0xbcc39a62	-0.023877326
107	0x3c360a0a	0.011110792
108	0xb907d3e9	-0.00012953546
109	0xbc8b9136	-0.017037015
110	0x3b402f07	0.0029324905
111	0xbd1fb0dd	-0.03898703
112	0x3cfd6c3e	0.030935403
113	0x3cb1b593	0.021693027
114	0xbd8de0af	-0.069276206
115	0xbc0a1843	-0.008428636
116	0x3cb2172b	0.021739563
117	0x3ceeef1d	0.029166752
118	0x3cd5bdb9	0.026091443
119	0x3bd5ca7f	0.0065243836
120	0x3c37d6dd	0.011220661
121	0x3ca9a212	0.020707164
122	0x39ed83aa	0.0004530226
123	0x3ca57ed5	0.02020208
124	0xbce144b3	-0.027498579
125	0x3dbbc22a	0.09167893
126	0x3d26f7f5	0.040763814
127	0xbd8220b7	-0.06353896
128	0xbc850d7b	-0.01624178
129	0xbc7cfc97	-0.0154410815
130	0x3d9ae8bb	0.07563921
131	0xbc2c0b27	-0.010500706
132	0xbcd0b4f5	-0.025476912
133	0x3bb8ba35	0.005637432
134	0x3d82c581	0.06385327
135	0xbd022794	-0.031776026
136	0xbcf7a5fe	-0.030230518
137	0x3d1997ca	0.037498273
138	0x3c2946c5	0.010331814
139	0x3d9b957d	0.07596872
140	0xbce03620	-0.027369559
141	0xbdbea345	-0.09308485
142	0x3d34f573	0.04417939
143	0xbcf6c4aa	-0.030123074
144	0xbd14b920	-0.03630936
145	0xbce48ba4	-0.027898617
146	0xbdc636f8	-0.09678453
147	0x3c40c2e0	0.011765212
148	0xbc0929cd	-0.0083717825
149	0x3c4c6fdd	0.012477842
150	0xbd448e7b	-0.047987442
151	0xbdac418e	-0.08410941
152	0xbdeb668c	-0.11494169
153	0x3d8172cd	0.06320725
154	0x3d5bdaea	0.05367557
155	0x3c1f84b2	0.009736227
156	0xbe04229c	-0.12903827
157	0xbddf212d	-0.10895
158	0xbd1ec698	-0.038763613
159	0x3d81eabc	0.063436
160	0x3cf08960	0.02936238
161	0x3dba1b42	0.0908723
162	0x3d2f560b	0.042806666
163	0x3da8c5c7	0.08240848
164	0xbc1695bc	-0.009190973
165	0xbba43d09	-0.005012159
166	0x3db08ef4	0.08621016
167	0x3d99bd30	0.07506788
168	0x3de85504	0.113443404
169	0x3b4ca7b2	0.0031227884
170	0xbdb547fc	-0.088516206
171	0xbc905093	-0.017616546
172	0xbc6723d6	-0.014107665
173	0xba85fbdf	-0.0010222158
174	0x3cf0bfee	0.029388394
175	0x3d426c03	0.04746629
176	0x3ce6d629	0.028178291
177	0xbcebbcc6	-0.028776538
178	0x3b8da3a6	0.004322487
179	0xbcbdebe4	-0.02318377
180	0x3d362cab	0.044476192
181	0xbc5ed2db	-0.013600077
182	0x3d25d725	0.04048838
183	0x3ba7861a	0.0051124217
184	0xbbdb906d	-0.0067005665
185	0x3c1cd4c7	0.009572214
186	0xbd12b719	-0.035819147
187	0xbc381da5	-0.011237537
188	0x3d2ac482	0.04169131
189	0x3d00ad8a	0.0314155
190	0xbd89d70f	-0.06730472
191	0xbd94f26c	-0.07272801
192	0x3c499bec	0.012305241
193	0x3c01a9fd	0.0079140635
194	0x3c1ccf71	0.009570942
195	0xbbc3ab1e	-0.0059713265
196	0xbcb065e8	-0.021532968
197	0xbd27d8f3	-0.040978383
198	0xbd68f2de	-0.05687224
199	0x3c2ef5b5	0.010678698
200	0x3b16a3cf	0.002298582
201	0xbd4bde54	-0.049772575
202	0xbc4e6a49	-0.012598583
203	0xbd54456a	-0.05182401
204	0xbc0e21f5	-0.008675088
205	0xbb886409	-0.0041623157
206	0x3b03621c	0.0020047491
207	0xbd368400	-0.04455948
208	0xbd79f05e	-0.061020248
209	0xbd895bc6	-0.067069575
210	0x3d4d2646	0.05008533
211	0x3d7721ba	0.0603349
212	0x3d842610	0.06452572
213	0xbb557d37	-0.0032575855
214	0x3c301b5c	0.0107487105
215	0xbae8f326	-0.0017772659
216	0x3cfe5e57	0.031050844
217	0x3da350eb	0.07974418
218	0xbc66051a	-0.014039302
219	0xbce041b4	-0.02737508
220	0xbd848258	-0.064701736
221	0xbcc06be9	-0.023488956
222	0xbd336379	-0.043796036
223	0xbb8f27ac	-0.004368743
224	0x3b134d56	0.0022476516
225	0x3d868c4c	0.06569728
226	0xbd0e373c	-0.034720644
227	0xbbcc4b50	-0.006234564
228	0xbd65f8ac	-0.056145355
229	0xbab1309d	-0.0013518516
230	0x3c0808a8	0.008302845
231	0x3d8b554b	0.06803378
232	0x3cb7abf7	0.022420866
233	0xbc064057	-0.008194051
234	0x3cd026e7	0.025409175
235	0x3ceabe9c	0.028655343
236	0x3d9ddf3c	0.07708594
237	0x3d8fe2db	0.07025691
238	0x3c8e29f2	0.017353985
239	0xbc588810	-0.013216034
240	0x3cda7bab	0.026670298
241	0x3cef46c7	0.029208554
242	0x3c18ad81	0.00931871
243	0x3c7f522b	0.015583555
244	0xbcf12f81	-0.029441597
245	0xbc325316	-0.010884067
246	0xbc919fb2	-0.017776344
247	0xbd2b02bd	-0.04175066
248	0x3d706474	0.05868955
249	0x3d07529c	0.033037767
250	0x3d326431	0.04355258
251	0xbb7c658d	-0.0038512677
252	0x39fe4f2b	0.0004850564
253	0xbda1a152	-0.078920975
254	0xbca8ed38	-0.020620927
255	0x3c76551c	0.01503494

conv.bias f4 [20]
0	0x3e557fc6	0.20849523
1	0x3d143f99	0.036193464
2	0x3defeca9	0.11715061
3	0x3d0aab4c	0.033854768
4	0xbba5da30	-0.0050614104
5	0x3e0babb1	0.13639714
6	0x3e692ec2	0.22771743
7	0xbbebaedc	-0.0071924757
8	0x3def8047	0.11694389
9	0x3da9995a	0.082812026
10	0x3de80a34	0.11330071
11	0x3dc733fb	0.09726711
12	0x3d61f8d1	0.05516893
13	0x3e1a3613	0.1505969
14	0x3e3664e5	0.17811926
15	0x3e8aa40b	0.2707828
16	0x3e048bca	0.1294395
17	0x3e3b697f	0.18301962
18	0x3e5d41ac	0.21607083
19	0x3d866209	0.065616675

fc1.weight f4 [50, 980]
0	0x3c99003f	0.018676875
1	0x3a17b665	0.0005787372
2	0x3c47e30a	0.012200126
3	0xbb2cb321	-0.0026351886
4	0x3c2467d0	0.010034516
5	0xbba52d23	-0.005040781
6	0xbc757ef8	-0.014983885
7	0x3cb300f5	0.021851042
8	0x3cf8f8ad	0.030392015
9	0x3ca74ba8	0.020421818
10	0xbcb24ce0	-0.021765172
11	0xbd1b278a	-0.037879504
12	0x3cdd464e	0.027011063
13	0x3a8d1f0c	0.0010766699
14	0xbc848243	-0.016175395
15	0x3ca40b35	0.020024875
16	0x3d16b1a2	0.036790498
17	0x3d41af4a	0.04728631
18	0x3c9cb9ad	0.019131506
19	0xbcef8da6	-0.029242348
20	0xba50229c	-0.00079397275
21	0x3c727424	0.014798198
22	0xbcb2abb0	-0.021810383
23	0xbcad8e63	-0.02118606
24	0x3c9db6b2	0.019252155
25	0x3cce26df	0.02516502
26	0x3b9ddbd5	0.004817466
27	0xbc4017d2	-0.011724429
28	0x3c82244a	0.015886445
29	0xbc8b634f	-0.017015127
30	0xbd11731d	-0.03551017
31	0x3bff1278	0.007784184
32	0x3d3002d7	0.04297146
33	0x3d42048f	0.04736763
34	0x3bf7b660	0.0075595826
35	0x39ef6dc1	0.00045667405
36	0xbcba9959	-0.0227782
37	0xbd8a595e	-0.06755327
38	0xbc3615ca	-0.011113593
39	0xbc9b410d	-0.018951917
40	0x3cf2c8c8	0.029636756
41	0x3cc2daac	0.023785912
42	0xbc5c1638	-0.013433032
43	0xbca207da	-0.019779135
44	0xbcca137e	-0.024667498
45	0x3a055d51	0.00050874526
46	0x3d57ead1	0.052714173
47	0x3c826c9f	0.015920935
48	0xbc1a128c	-0.009403836
49	0xbbaa4d49	-0.0051972014
50	0x3cb662d7	0.022263927
51	0x3ce42f9b	0.027854731
52	0x3aad0e8f	0.0013203191
53	0xbc2f0786	-0.010682946
54	0xbd0926c5	-0.03348424
55	0xbc741b88	-0.014899142
56	0xbcb60f31	-0.02222404
57	0x3b4ecafb	0.0031554091
58	0xbb36dd08	-0.002790274
59	0xbbd3afbc	-0.006460158
60	0xbce67ec4	-0.028136618
61	0xbc938a0a	-0.018010158
62	0x3cdf9298	0.027291581
63	0x3b70a809	0.003672125
64	0xbae8624f	-0.0017729494
65	0x3bf0a15c	0.0073434543
66	0x3c37e0a4	0.011222992
67	0xbcfd4ca5	-0.030920336
68	0xbce2242d	-0.02760514
69	0xbad2ee76	-0.0016092795
70	0xbc8d0645	-0.017214904
71	0xbbac0929	-0.0052501154
72	0x3c2ab70e	0.01041962
73	0xbc82c47f	-0.015962837
74	0xbcdc8f62	-0.026923839
75	0xbbfc62f3	-0.0077022254
76	0xbc7b0e7a	-0.015323276
77	0xbcf28392	-0.029603753
78	0xbc624087	-0.01380933
79	0x3b9afdf6	0.0047299815
80	0xbd87b819	-0.06626911
81	0xbca1541d	-0.019693429
82	0x3bee6e88	0.00727636
83	0xbc8812ff	-0.01661062
84	0x3c224ac3	0.00990552
85	0x3cc532cf	0.024072079
86	0xbc5c0bdd	-0.013430563
87	0xbcb588bd	-0.022159928
88	0x3cddbbad	0.02706703
89	0x3c354c34	0.0110655315
90	0xbcc145da	-0.023592878
91	0xbbef817e	-0.007309138
92	0x3bcc10bd	0.0062275813
93	0xbd41c277	-0.047304597
94	0xbcff98ee	-0.031200852
95	0x3cfc7a6c	0.030820094
96	0xbccd2ec5	-0.025046716
97	0x3ccb7c9b	0.02483969
98	0xbca106e7	-0.019656612
99	0xbbe7ad0c	-0.0070701893
100	0x3c9d6c4f	0.019216685
101	0x3cc7dc57	0.024397058
102	0xbcbcb082	-0.023033384
103	0x3c23d873	0.010000336
104	0xbce5f278	-0.02806972
105	0xbb90f43e	-0.004423647
106	0x3c011bb3	0.007880139
107	0x3c46842f	0.012116476
108	0xbb673c30	-0.0035283677
109	0xbbd5e3bb	-0.0065273917
110	0x3c392420	0.011300117
111	0xbcabac59	-0.020956205
112	0xbd93733d	-0.07199714
113	0xbca7f34a	-0.020501751
114	0x3d3e6434	0.04648228
115	0xbd1c3b58	-0.038142532
116	0xbcf90ec9	-0.030402558
117	0xbccb6ccc	-0.024832152
118	0xbcfd7d85	-0.030943641
119	0xbc7900d5	-0.015197952
120	0xbd263dc4	-0.040586248
121	0x3d15a684	0.036535755
122	0xbd144af4	-0.036204293
123	0xbcc5d0f6	-0.024147492
124	0xbd1b466b	-0.037908953
125	0xbb9ae6c5	-0.004727217
126	0x3c60dda0	0.0137247145
127	0xbc52c2eb	-0.012863855
128	0x3cb6a5be	0.022295829
129	0xba759d6a	-0.0009369465
130	0x3cb5e3c3	0.022203332
131	0xbc52d4b0	-0.012868091
132	0xbd123374	-0.0356936
133	0x3d07d462	0.03316153
134	0x3cd9c18f	0.026581554
135	0xbd5e476c	-0.054267332
136	0x3b523492	0.0032074791
137	0x3d44b2d1	0.048022095
138	0x3d043dac	0.032285377
139	0xbcf26956	-0.029591244
140	0x3c82745f	0.01592463
141	0x3c33cb75	0.010973801
142	0xbd867709	-0.06565673
143	0xbccee04c	-0.025253437
144	0x3953c191	0.00020194637
145	0xbccba4fa	-0.02485894
146	0x3c6de9d7	0.014521084
147	0x3d009157	0.031388607
148	0xbb1d50d5	-0.0024004478
149	0x3c22693d	0.009912786
150	0x3c98ca4e	0.018651154
151	0x3ca82f87	0.020530475
152	0x3cc56a7f	0.024098633
153	0x3c6d8d1c	0.014498975
154	0xbc94268f	-0.018084792
155	0x3be57bbd	0.007003276
156	0xbd17a695	-0.0370241
157	0x3bf79e0f	0.007556684
158	0x3c8500db	0.01623576
159	0xbc442729	-0.011972227
160	0xbc8b96dd	-0.01703971
161	0xbcae746d	-0.02129575
162	0x3bf34dd6	0.0074250503
163	0xbcdb714a	-0.026787419
164	0x3c7cf8ee	0.015440209
165	0x3c86949c	0.016428284
166	0xbc53614b	-0.012901614
167	0x3c012afe	0.007883785
168	0x3a99b77c	0.0011727656
169	0x3c210f70	0.009830341
170	0x3c912295	0.017716685
171	0xbc92e457	-0.017931147
172	0xbbaccacc	-0.0052731987
173	0x3d22014b	0.039552014
174	0xbb5c24c1	-0.0033591243
175	0x3cb01d96	0.021498483
176	0xbbfd0801	-0.0077219014
177	0xbcb2fe30	-0.021849722
178	0x3d284cf3	0.04108901
179	0x3c1a10e9	0.009403446
180	0xbc1132d6	-0.008862218
181	0x3bcca0f5	0.0062447735
182	0xbbb88288	-0.005630795
183	0xbce137e6	-0.027492475
184	0x3cb2e644	0.021838315
185	0xbcc017a2	-0.023448769
186	0xbd335446	-0.04378154
187	0x3b759e07	0.0037478225
188	0xbc8a7835	-0.016903022
189	0xbc6b4b6e	-0.014361246
190	0xbc1faba0	-0.009745508
191	0x3c6c0298	0.014404915
192	0xbd16eaaa	-0.036844887
193	0xbd3a2453	-0.045444798
194	0x3c65d110	0.014026895
195	0xbc4c2174	-0.012459148
196	0xbc94e8af	-0.018177358
197	0x3c689267	0.014195061
198	0x3cc32d90	0.023825437
199	0x3b8f4c51	0.0043731113
200	0x39c1dce9	0.0003697642
201	0x3cdbd6bb	0.02683579
202	0x3a8482b7	0.0010109757
203	0xbccc162b	-0.024912914
204	0xbc6c1b49	-0.014410802
205	0x3c19f6a0	0.009397179
206	0x3c278997	0.010225675
207	0xb919b10a	-0.00014657169
208	0x3c19dcdf	0.009391039
209	0x3c4606e7	0.012086607
210	0xbc9546f0	-0.018222302
211	0xbceacf7c	-0.02866339
212	0x3b7aa37f	0.0038244424
213	0xbc1630fb	-0.009166951
214	0xbc6e5aa8	-0.014547981
215	0xbc4d9775	-0.012548317
216	0x3a339ccd	0.0006851673
217	0x3c27f271	0.010250674
218	0xbae700e3	-0.0017624166
219	0xbd11e802	-0.03562165
220	0xbae3aea4	-0.0017370773
221	0x3ba5a835	0.005055452
222	0xbcd548e0	-0.026035726
223	0x3cab38da	0.020901132
224	0x3c46079d	0.012086776
225	0xbb99be59	-0.0046918807
226	0xbc0d045f	-0.008606999
227	0x3c653d53	0.013991672
228	0x3ce0254a	0.02736153
229	0xbd052fdf	-0.032516357
230	0xbd186707	-0.03720763
231	0x3cad857c	0.021181814
232	0x3be870ad	0.00709351
233	0x3bdab138	0.006673958
234	0x3c917a54	0.017758526
235	0xbc7bce77	-0.015369049
236	0x3a56febc	0.00082014105
237	0xbb9bea7d	-0.004758178
238	0x3cbfbd71	0.023405762
239	0xbbd09fbb	-0.0063666976
240	0x3cbcc3af	0.023042528
241	0x3ca093f4	0.0196018
242	0xbc453dca	-0.012038657
243	0xbc7af94a	-0.015318224
244	0x3b02554a	0.0019887262
245	0x3c996923	0.01872689
246	0x3c167ec3	0.009185496
247	0x3c43457d	0.011918423
248	0x3cb18e45	0.021674285
249	0x3b22daba	0.002484961
250	0x3b01a5e0	0.0019782707
251	0xbbaed1e9	-0.005335082
252	0x3ccc7163	0.02495641
253	0xbcbd6988	-0.02312161
254	0x3ca08a50	0.019597203
255	0xbc60f92f	-0.013731285

fc1.bias f4 [50]
0	0x3d1f645f	0.03891408
1	0x3d193d03	0.0374117
2	0x3bb42b4d	0.005498326
3	0xbcedae0a	-0.029013652
4	0x3d0d8839	0.03455374
5	0x3ca33cb6	0.01992641
6	0x3d0f663e	0.035009615
7	0x3cd9ae2e	0.026572313
8	0x3d866fa0	0.065642595
9	0x3c854ee8	0.016272977
10	0x3da9a092	0.082825795
11	0xba855bcc	-0.0010174452
12	0xbd08adbc	-0.03336881
13	0xbbd71e2f	-0.0065648775
14	0xbcf72b66	-0.030172061
15	0x3d49b6f8	0.04924676
16	0xbccc622f	-0.024949161
17	0x3d0bf354	0.034167603
18	0xbcf18593	-0.029482638
19	0x3d034035	0.032043654
20	0xbc08d464	-0.008351419
21	0x3d3bfc4b	0.045894902
22	0x3d1429a7	0.036172535
23	0xb829243b	-4.0326482e-05
24	0x3c65826f	0.014008149
25	0x3d1ea1a1	0.03872836
26	0xbc9359af	-0.0179871
27	0x3d18e5c9	0.037328515
28	0xbc949cc9	-0.018141167
29	0xbb58db21	-0.0033089595
30	0xbc561c36	-0.013068249
31	0x3c554f84	0.013019446
32	0xbc553c16	-0.013014814
33	0xbb65436c	-0.0034982814
34	0x3d13dd9d	0.03610002
35	0x3c160777	0.009157053
36	0xbc0640aa	-0.008194128
37	0xbc7502a9	-0.0149542475
38	0xbce81bf8	-0.028333649
39	0x3c3e9699	0.011632585
40	0xbca07f27	-0.019591881
41	0x3d22d16b	0.039750498
42	0x3ccbec72	0.02489302
43	0xbcadc894	-0.021213807
44	0xbcd41180	-0.02588725
45	0xbc46f640	-0.0121436715
46	0x3d143cc2	0.036190756
47	0x3d182289	0.03714231
48	0xbc1a13eb	-0.009404163
49	0xbc917c46	-0.017759454

fc2.weight f4 [10, 50]
0	0x3e035650	0.12825894
1	0x3df40c27	0.119163804
2	0x3d0dc67e	0.034613125
3	0x3dc749c7	0.09730869
4	0x3da4009a	0.08007927
5	0xbdc7cc2e	-0.09755741
6	0x3e2a4482	0.16627696
7	0x3d08d78a	0.03340868
8	0x3d3934fb	0.04521654
9	0x3d86a081	0.065735824
10	0xbde4991f	-0.11162018
11	0xbdd81e5f	-0.10552668
12	0x3d9a6957	0.07539623
13	0x3cc413e5	0.023935268
14	0x3d8b9366	0.068152234
15	0x3e2c56b4	0.1682995
16	0xbd1b3f1e	-0.03790199
17	0x3d1ebc0d	0.038753558
18	0xbcc264bb	-0.023729673
19	0x3d703f6e	0.05865424
20	0x3d4f1b1b	0.05056296
21	0xbe694d7e	-0.22783467
22	0xbdbb733b	-0.09152838
23	0xbda3b227	-0.07992964
24	0xbdb59237	-0.08865779
25	0xbdf8e8ee	-0.12153803
26	0x3e0f03d6	0.13966307
27	0x3ce2cff9	0.02768706
28	0x3da1d8d1	0.079026826
29	0x3e6223cc	0.22083968
30	0xbd02cfe1	-0.03193653
31	0x3da4ffbd	0.08056591
32	0xbe0dd2a4	-0.13849884
33	0x3d9297a1	0.07157827
34	0xbe2636df	-0.16231869
35	0xbae1d74e	-0.0017230303
36	0x3cb2e21c	0.021836333
37	0x3d432625	0.0476438
38	0xbe642f28	-0.22283614
39	0x3d58d403	0.052936565
40	0xbe1cb8c8	-0.15304863
41	0x3db54d14	0.08852592
42	0x3d999d13	0.07500663
43	0xbdf9fe0b	-0.12206658
44	0x3d9210ca	0.071321085
45	0x3cb6c005	0.022308359
46	0x3e34ce42	0.17656806
47	0x3df49259	0.11941976
48	0x3ceb9c14	0.028760947
49	0x3c89f5d1	0.016840847
50	0xbdd34449	-0.10315759
51	0x3e905b70	0.2819476
52	0xbdcedec9	-0.10101087
53	0xbdd3c746	-0.10340743
54	0x3dabfccb	0.08397826
55	0x3e4f1211	0.20221736
56	0xbd1a42ad	-0.037661243
57	0xbdbd3764	-0.092390805
58	0x3cdfbd28	0.027311876
59	0xbe49876c	-0.19680566
60	0xbc0575be	-0.008145748
61	0xbe260311	-0.16212107
62	0xbe46018b	-0.19336526
63	0xbdc82a6c	-0.09773716
64	0xbd25c034	-0.040466502
65	0xbdec2458	-0.115303695
66	0x3e1c3522	0.15254644
67	0x3d6b3eb0	0.05743283
68	0xbe092b6d	-0.13395472
69	0x3e4cb0b4	0.19989282
70	0xbe1fbd09	-0.15599455
71	0xbd9ed85e	-0.077561125
72	0xbd1a86a1	-0.03772605
73	0x3d6c5b7e	0.05770444
74	0xbdbd1171	-0.09231842
75	0xbd710848	-0.05884579
76	0xbd338b9b	-0.04383431
77	0xbdfc8df6	-0.123317644
78	0xbcf44d00	-0.029821873
79	0xbde2d6b1	-0.110761054
80	0x3e8f6eca	0.28014213
81	0x3de6a05d	0.112610556
82	0xbd9148e9	-0.07093985
83	0xbd7b828a	-0.06140379
84	0xbdb34907	-0.08754163
85	0xbe03b444	-0.12861735
86	0x3d95bec4	0.07311776
87	0xbd630a31	-0.05542964
88	0xbd297751	-0.041373555
89	0x3d70d2e4	0.05879487
90	0x3d2d1801	0.04225922
91	0xbdc7633f	-0.097357266
92	0x3dca24a3	0.09870269
93	0x3df9008b	0.12158307
94	0xbdc5df12	-0.09661688
95	0xbddb886c	-0.1071938
96	0xbe45b16f	-0.19305967
97	0x3d86da10	0.06584561
98	0xbbc987f1	-0.0061502387
99	0xbdcf574c	-0.101240724
100	0xbdef4a57	-0.11684101
101	0xbd1ead1b	-0.038739305
102	0x3e0ddadc	0.1385302
103	0x3d3f603e	0.046722643
104	0x3d30cea1	0.043165807
105	0xbdbd0ce6	-0.09230976
106	0x3e17f025	0.14837702
107	0x3c4398c8	0.011938281
108	0x3e3b6e39	0.18303765
109	0xbdf8456d	-0.12122617
110	0xbe722e7b	-0.23650543
111	0x3bd11726	0.0063809333
112	0x3dd2475a	0.102675155
113	0x3cd50ef0	0.0260081
114	0x3d15672e	0.036475353
115	0x3e129673	0.14315204
116	0xbbd45c09	-0.006480698
117	0xbbdd802d	-0.0067596645
118	0x3d893730	0.06699979
119	0x3df8f0e7	0.121553235
120	0x3e2661f5	0.16248305
121	0x3d24c510	0.040226996
122	0x3dc7fce6	0.097650334
123	0xbdba7dab	-0.091060005
124	0xbdecbd2e	-0.11559521
125	0x3d72fed5	0.059325058
126	0x3de2a00f	0.11065685
127	0xbd8e9276	-0.06961529
128	0xbdca56cd	-0.09879837
129	0x3e2fe660	0.17177725
130	0x3cf3cb35	0.029759983
131	0xbc81a53b	-0.015825858
132	0xbd1127b6	-0.035438262
133	0xbdb6c3df	-0.08924078
134	0xbd399d3d	-0.04531597
135	0x3d0e5245	0.034746427
136	0x3a406c57	0.00073403626
137	0xbddd39a4	-0.1080201
138	0xbd15a061	-0.036529902
139	0x3ce1b21e	0.027550753
140	0x3e5a5ae7	0.21323739
141	0x3dede062	0.11615063
142	0xbe88a343	-0.2668706
143	0xbd7a1afa	-0.061060883
144	0x3e2316ee	0.15926716
145	0x3ea9771c	0.33098686
146	0xbe553f78	-0.20824993
147	0x3d38f8eb	0.04515926
148	0xbe007359	-0.12544002
149	0xbc118b6d	-0.008883339
150	0xbd76f53d	-0.06029247
151	0x3e1d4493	0.1535819
152	0x3d1cc616	0.038274847
153	0xbcadc9dd	-0.02121442
154	0xbcdef4e4	-0.027216382
155	0x3e26df4a	0.16296116
156	0xbd85e702	-0.06538202
157	0x3d798001	0.06091309
158	0xbd999080	-0.07498264
159	0xbdc34cb2	-0.09536113
160	0x3e0430dd	0.12909265
161	0xbd3d17f4	-0.04616542
162	0x3dee82f8	0.11646074
163	0x3d66c875	0.056343514
164	0x3d9a04fa	0.075204805
165	0xbdcb481d	-0.09925864
166	0xbd3c6c4e	-0.046001725
167	0x3ca1409b	0.019684127
168	0x3d9ae4b7	0.07563155
169	0xbdf7f826	-0.121078774
170	0x3e4a0e7a	0.19732085
171	0x3def1c53	0.11675324
172	0xbd7d7bb3	-0.061885547
173	0x3d960656	0.07325427
174	0xbd886964	-0.06660727
175	0xbe64cdb0	-0.22344089
176	0xbcf6afe2	-0.030113164
177	0xbc7e49d1	-0.015520529
178	0xbd1cf8a1	-0.03832305
179	0x3e5452ca	0.20734707
180	0xbd1ff910	-0.039055884
181	0xbd0e776e	-0.034781866
182	0xbcbd5036	-0.023109537
183	0xbe12e4c1	-0.14345075
184	0xbe0ca2c8	-0.13733971
185	0x3deb8df2	0.11501683
186	0x3dde606d	0.108582355
187	0xbdd2ba4f	-0.10289442
188	0x3e168309	0.14698423
189	0xbda92434	-0.08258858
190	0x3de7cf49	0.113188334
191	0xbde110ad	-0.10989509
192	0x3e09e7fa	0.13467398
193	0xbaecb2dd	-0.0018058677
194	0x3d8d0038	0.06884807
195	0xbdd1e57c	-0.10248849
196	0xbdf32a19	-0.11873264
197	0xbdb1b9df	-0.0867803
198	0xbc9433c9	-0.0180911
199	0xbc2feda9	-0.010737815
200	0x3d65812c	0.05603139
201	0x3e46060c	0.19338244
202	0xbcf17189	-0.029473083
203	0xbcc8e1fa	-0.024521817
204	0xbe49064e	-0.19631311
205	0xbe4ddbe1	-0.20103408
206	0x3dd8d54c	0.10587558
207	0xbdbae7ce	-0.091262445
208	0x3cbf387b	0.023342362
209	0x3d4c7543	0.049916517
210	0xbdca1245	-0.09866766
211	0x3dbb1528	0.091348946
212	0xbc4aa819	-0.012369179
213	0x3e12c6b8	0.14333618
214	0x3de990f8	0.11404604
215	0xbb01cdf3	-0.0019806593
216	0x3e2dcdd5	0.1697305
217	0xbd24f0cc	-0.040268704
218	0xbdbd2252	-0.09235062
219	0xbe3c2ec9	-0.18377222
220	0x3db25dcd	0.08709297
221	0xbd9bf7da	-0.07615633
222	0x3e2a9b84	0.16660887
223	0xbda7385a	-0.08165045
224	0xbd67111d	-0.056412805
225	0x3d680e1e	0.05665409
226	0xbcb77c5f	-0.022398172
227	0x3d938452	0.072029725
228	0x3ddd135e	0.107947096
229	0xbd4b5599	-0.04964218
230	0x3e48b069	0.19598545
231	0x3d8b0d2e	0.06789623
232	0xbdd1c9cf	-0.1024357
233	0x3d0fca5d	0.035105098
234	0xbd0f0a87	-0.03492215
235	0xbd32d9d6	-0.043664776
236	0xbd856713	-0.065138005
237	0x3df73e42	0.120724216
238	0x3e6696cb	0.2251846
239	0xbdf5b46c	-0.11997303
240	0x3e2483ae	0.16065857
241	0xbe0805df	-0.1328349
242	0xbda0546c	-0.07828602
243	0x3ce016a2	0.027354542
244	0xbd2e9d8d	-0.04263072
245	0x3e37c132	0.17944792
246	0xbe6af919	-0.22946586
247	0x3e17fd81	0.14842798
248	0x3d650248	0.05591038
249	0xbde1a896	-0.11018483
250	0xbe20e981	-0.15714075
251	0xbdea03dd	-0.11426518
252	0x3e38302f	0.1798713
253	0x3e1c5ada	0.15269032
254	0x3e2a2925	0.16617258
255	0xbe1f2a91	-0.15543582

fc2.bias f4 [10]
0	0xbd2c6c45	-0.04209544
1	0xbd6db838	-0.058037013
2	0x3c4e9ce3	0.012610647
3	0x3b62cf30	0.0034608357
4	0xbe14462e	-0.14479896
5	0x3e0e54ea	0.1389958
6	0x3dd51544	0.10404447
7	0x3d9d08e2	0.0766771
8	0xbcdf90f1	-0.027290793
9	0xbd874159	-0.06604261
